models/model.pth (torch, 20021 bytes, 8 tensors)

conv1.weight f4 [6, 1, 3, 3]
000000 81 80 dc 3e bf 19 94 3e 99 80 2e 3d 75 94 ce 3d
       0.4306679 0.28925893 0.04260311 0.1008691
000010 2c c4 25 be 07 ea 34 3e 24 d4 11 3e aa d2 ce bd
       -0.16188115 0.176674 0.14241081 -0.10098775
000020 1b 47 10 be cc 2f e5 3d 23 61 33 3e 4c 59 bc be
       -0.14089625 0.11190757 0.17517523 -0.36786878
000030 e5 92 6d 3e ac f7 12 be ef 18 4b 3e 14 76 c8 3d
       0.23200567 -0.14352292 0.1983373 0.097881466
000040 38 3e 30 be f6 37 1e be 73 f8 f2 3a be 53 3e be
       -0.17211235 -0.15451035 0.0018537178 -0.18586633
000050 a5 78 e9 be ff a1 84 3c 5e 9c 80 bd 40 82 77 3e
       -0.45599857 0.016190527 -0.06279825 0.2417078
000060 22 3a 5b be 68 54 2f be d2 24 fd 3d 2b 38 0f be
       -0.21408895 -0.17122042 0.123605385 -0.1398627
000070 23 30 b8 3c dc 48 93 be b3 99 e5 3d 45 67 3e be
       0.02248389 -0.28766525 0.112109564 -0.18594082
000080 90 58 15 3e e4 19 5a 3e ba dd a4 bd 9c 64 4b 3e
       0.14584565 0.21298939 -0.080501035 0.19862598
000090 4e 39 39 be 7e f5 10 be 05 b8 89 3e 44 f3 97 3e
       -0.18088266 -0.14156148 0.26898208 0.29677784
0000a0 c3 da de 3d c9 2a 50 3e 07 89 68 be d8 b8 5b be
       0.10881569 0.20328821 -0.22708522 -0.21457231
0000b0 e7 67 01 be 7b 4b 08 3e 1e c9 31 be d2 c6 17 be
       -0.12637292 0.13310044 -0.17361876 -0.14821938
0000c0 b5 6f ce bd 19 d2 0a be 7c 07 f1 3d e5 9f 38 3e
       -0.100799 -0.13556708 0.11769006 0.18029745
0000d0 3b 5b 96 3e fd 94 81 be
       0.29366478 -0.25308982

conv1.bias f4 [6]
000000 88 80 29 bd 37 4b 12 3e e7 57 f7 3b 4c 5d 6c bd
       -0.041382343 0.14286505 0.0075483206 -0.057706162
000010 c4 29 d0 3c cd bb bd 3e
       0.02541054 0.37057343

bn.weight f4 [6]
000000 df 48 84 3f 4e 11 85 3f 7c 9a 86 3f fc db 87 3f
       1.0334738 1.0395906 1.0515895 1.0614009
000010 84 84 90 3f ed 23 87 3f
       1.129044 1.0557839

bn.bias f4 [6]
000000 b6 32 d7 3d 35 88 73 3e 94 eb 41 3e 77 0c 39 3e
       0.10507719 0.23782428 0.18937522 0.18071161
000010 36 66 4a 3e c4 34 4c 3e
       0.19765553 0.19942003

bn.running_mean f4 [6]
000000 23 26 8a 42 5a b8 17 c0 e5 d8 7e c2 56 05 a7 3f
       69.074486 -2.370627 -63.71181 1.3048503
000010 09 73 64 bf eb ae e8 c0
       -0.8923803 -7.2713523

bn.running_var f4 [6]
000000 49 36 5d 45 34 72 1b 43 4f f9 2e 45 04 69 4e 43
       3539.3928 155.4461 2799.5818 206.41022
000010 e2 f7 a5 42 f4 88 03 43
       82.984146 131.53497

fc.weight f4 [2, 2100]
000000 61 4e 4d 3d 59 32 83 3c be 19 a6 bd d0 57 99 bd
       0.050123576 0.016015219 -0.08110379 -0.07487452
000010 a2 c3 9d bd c5 7a 81 bd 49 e7 ac bd 9d d9 1f bd
       -0.077033296 -0.063222446 -0.08442552 -0.03902589
000020 2a 92 9a bd 64 97 95 bd 52 01 b5 bc 62 1d 88 bd
       -0.0754741 -0.07304266 -0.022095356 -0.06646229
000030 25 73 2f bd 34 59 65 bd e7 50 e7 bc 98 e7 17 bd
       -0.04283442 -0.055993274 -0.02823682 -0.0370861
000040 ad 43 54 bd 93 47 94 bd 51 94 15 bd 61 e8 71 bd
       -0.051822353 -0.07240214 -0.0365184 -0.059059504
000050 88 60 9f bd 75 5f 87 bd b8 42 a0 bd 8a ba 83 bd
       -0.07782084 -0.06610004 -0.078252256 -0.06432064
000060 78 72 36 bd 7b eb 18 bd c4 9a 53 bd cf 21 6c bd
       -0.04454276 -0.037333947 -0.051661268 -0.05764943
000070 78 36 18 bd a1 34 43 bd d5 a6 00 bd 5a 65 8b bd
       -0.03716132 -0.047657613 -0.031409103 -0.06806441
000080 3a 17 37 bd 90 32 f7 bc 56 41 6b bd 25 3c 1e 3d
       -0.044699885 -0.030175477 -0.057435356 0.038631577
000090 51 35 fb 3c 82 19 71 bd e6 c4 92 bd 59 d1 5f bd
       0.030665072 -0.058862217 -0.07166462 -0.05464301
0000a0 f0 2f 16 bd 94 35 3a bd 02 c0 4a bd bb 88 42 bd
       -0.03666681 -0.045461252 -0.04949952 -0.047493678
0000b0 08 74 09 bd d7 b9 11 bd e4 fa 14 bd c2 3b b8 bc
       -0.03355792 -0.03557762 -0.03637208 -0.022489432
0000c0 bc 9f 07 bd f8 7b d9 bc fc 0e 5a bd 01 63 0c bd
       -0.03311132 -0.02654837 -0.053236946 -0.034274105
0000d0 3a 5d 36 bd 9c f5 28 bd a9 98 46 bd 1d be 4d bd
       -0.0445225 -0.041249856 -0.04848543 -0.050230134
0000e0 13 69 73 bd 5b 52 78 bd 72 9f 0e bd cd 17 05 bd
       -0.05942638 -0.060625415 -0.034820028 -0.0324934
0000f0 51 ad 1d bd 60 39 20 bd ac 16 00 bd 7a 19 20 bd
       -0.038495366 -0.039117217 -0.03127162 -0.039086796
000100 48 79 e9 bc 6c 0e b8 bc 9e 47 0f bd c6 79 56 bd
       -0.028500214 -0.022467814 -0.03498041 -0.052362226
000110 0c 10 02 bd 18 b6 3b bd fd fd 5c 3d 6a 0a 43 3d
       -0.031753585 -0.045827955 0.05395316 0.047617353
000120 6d 24 8e bb e1 c8 ac bd 0e 69 2e bd eb 6c fb bc
       -0.0043378384 -0.08436752 -0.042580657 -0.030691585
000130 51 f9 fd bc 63 98 b0 bc c4 06 22 bd 80 82 9e bc
       -0.031002672 -0.021557039 -0.039557233 -0.019349337
000140 33 9d 2c bd b8 d7 aa bc c7 46 df bc d9 b2 ea bc
       -0.042142104 -0.020854816 -0.027255429 -0.028649734
000150 18 a7 af bc 16 d8 8d 3a 46 19 28 bd 40 6b 23 bd
       -0.021441981 0.0010821845 -0.041039728 -0.039897203
000160 97 23 0e bd 76 81 6f bd 05 0c 02 bd 60 2e c8 bc
       -0.03470191 -0.058473073 -0.031749744 -0.024436176
000170 1a e2 74 bc dc b5 0e bd 01 01 73 3a 2b 92 08 bd
       -0.014946485 -0.034841403 0.0009269864 -0.03334252
000180 c6 03 82 bc 1c ce ef bc de b1 c5 bc 71 2f b2 bb
       -0.01587094 -0.029273085 -0.024132665 -0.0054377844
000190 47 03 05 bd 75 03 28 3c 86 d0 2b bd c4 74 f4 bc
       -0.03247383 0.0102547305 -0.04194691 -0.029840834
0001a0 4d b0 0c bd d6 07 85 3d 69 3b 4d 3d d7 de 60 3b
       -0.03434782 0.06495635 0.050105486 0.003431251
0001b0 ef c6 4e bd d9 02 09 bd a1 d5 1a bb dd 4f 05 bc
       -0.050482687 -0.03344998 -0.0023625868 -0.008136717
0001c0 9a 5c d7 3b b5 b6 d2 bc 35 73 de bc 7f 6c db bc
       0.0065723183 -0.025721887 -0.027154544 -0.026785133
0001d0 37 bd af bc de f3 7a 3c 64 a6 38 bc e6 2e 9a 3c
       -0.02145253 0.0153169315 -0.011270139 0.018821191
0001e0 2f f8 9c bb 26 de 4c bd e7 3c b6 bc ef a5 53 bc
       -0.004790328 -0.050016545 -0.022245837 -0.01291798
0001f0 de d9 81 3b 15 23 01 3d a1 39 7b 3d 27 4e b1 3d
       0.0039627394 0.031527597 0.061334256 0.086574845
000200 dd 29 28 3d 33 61 18 3c 19 ec b1 bb 6a 80 bb bc
       0.04105555 0.009300518 -0.0054297564 -0.022888381
000210 fb 2c 84 bc f9 75 69 bd 02 bb bb bc 47 e8 6f 3a
       -0.01613473 -0.056997273 -0.02291632 0.00091517385
000220 03 30 b9 bc 22 a6 5f bc ba 8d c0 3b ea d2 e7 bc
       -0.022605902 -0.013650449 0.00587627 -0.028298814
000230 87 68 73 3d f0 2e 38 3d 34 27 1c 3d ba 11 50 bd
       0.059425857 0.044966638 0.038123325 -0.050798155
000240 6d fa 2d bd 35 31 a7 bc fa 66 27 bd e9 34 b1 bc
       -0.042475153 -0.020409206 -0.04086969 -0.021631675
000250 cf e0 30 bd b9 97 a1 ba a4 eb 8c 3c 1a c6 6b 3c
       -0.043183144 -0.0012328542 0.017202206 0.014390493
000260 9c ab ad 3b f8 b1 e4 3c 7b ea 6b 3d 57 0d 08 3d
       0.0052999984 0.027916893 0.057596665 0.033215847
000270 18 e8 36 bd c6 12 b7 3c 83 ca 31 3d 81 94 62 3c
       -0.044654936 0.022347819 0.04340602 0.013829351
000280 50 51 c1 3c 2c 47 7f 3c 7d 36 81 3d fe 12 4a 3d
       0.023598343 0.015580934 0.06309221 0.04933452
000290 0f fd 6e 3d 10 77 78 3d ef dd 6a 3d 0a 6c 23 3c
       0.058346804 0.06066042 0.05734056 0.009974489
0002a0 49 a4 ca 3c 98 97 5a 3c 25 bb 63 bc 46 da a5 bc
       0.02473654 0.013341807 -0.013899599 -0.020245682
0002b0 f9 3c 97 3c e5 a3 87 3c a7 54 80 bc c3 94 a3 3d
       0.018461691 0.016557643 -0.015665365 0.079873584
0002c0 f7 41 99 3d 79 2a e8 3c 22 f5 e8 bc 2e 79 e6 bc
       0.07483285 0.028340565 -0.028437201 -0.028133955
0002d0 b1 ab 67 bb d4 74 93 bc e1 5a 8b bd 2b 68 25 bd
       -0.0035350139 -0.018000044 -0.06804443 -0.040382545
0002e0 c0 f9 a4 3c b3 d3 a2 3d 8e f0 06 3d 6d 91 2b bc
       0.020138621 0.07950535 0.032944255 -0.010471684
0002f0 03 0d 97 bc 6c 04 67 3c 7b 14 73 3d 66 a6 84 3d
       -0.018438822 0.014100175 0.059345704 0.064770505
000300 96 0a 83 3a 67 4a 7f 3d 9c d9 85 3d ad 46 43 3d
       0.0009997662 0.062326815 0.06535646 0.047674824
000310 f2 b6 0e 3d 79 67 7e bb 77 ce df 3b 3d 3e 66 bc
       0.03484244 -0.0038818999 0.0068300324 -0.014052925
000320 ee d7 81 bc e8 0b d3 3c 61 f1 05 bd 68 e0 9b 3c
       -0.015850034 0.025762513 -0.0327009 0.019027904
000330 28 9a f4 3b e1 d9 3a ba 6a 41 59 3c 49 ef 37 3b
       0.007464666 -0.00071278034 0.013260225 0.002806621
000340 67 94 04 3d e9 5e 7f bb 3f f8 81 3d 94 8e 81 3d
       0.03236809 -0.0038966483 0.06346177 0.06326023
000350 32 37 a0 3d 82 47 b5 3d 2c 4c 5e 3d d6 bb 84 3d
       0.07823028 0.0885153 0.054271862 0.06481139
000360 af e9 ae bc 2a d0 39 bc 71 2c 0c bc 5d 42 72 3d
       -0.021351663 -0.011341134 -0.0085555175 0.05914532
000370 67 0d f8 3d cc 4e 91 3c 92 2b 91 bc c3 7e 61 3b
       0.12111931 0.017737769 -0.017720971 0.0034407831
000380 9b e1 ab 3c e5 27 7d 3b e8 5d f8 3c d7 a6 b7 3b
       0.0209816 0.0038628515 0.030318215 0.0056046057
000390 eb 92 be bc d8 4e 00 3d df 26 3c 3d 21 eb 4f 3d
       -0.023263415 0.03132519 0.045935508 0.050761346
0003a0 cb ad d3 3b e8 60 87 bc 86 74 bb 3c 24 76 28 3c
       0.0064599267 -0.0165257 0.022882711 0.010282073
0003b0 57 01 17 3c 74 27 80 3a 52 2e 2b bb 10 ef b1 3c
       0.009216628 0.0009777383 -0.0026120138 0.02172044
0003c0 33 04 b5 3b c2 15 29 bc 4d 9d 58 3c ff c1 0b 3c
       0.005524182 -0.010320129 0.013221097 0.008530139
0003d0 47 61 74 bb e2 06 62 3d 06 5b 95 3d 6d 8d 83 3b
       -0.0037289427 0.055182345 0.07292752 0.004014662
0003e0 d6 8e cf bc 70 e3 ea 3c cf 8d e2 3c 63 09 81 3b
       -0.025336664 0.028672904 0.02765551 0.0039378866
0003f0 c9 bf 55 3b a6 df 89 bc 24 a1 be bc db a6 34 bc
       0.0032615534 -0.016830277 -0.023270197 -0.01102611

fc.bias f4 [2]
000000 2a 36 a9 3d c3 bf a1 3d
       0.08262284 0.07897904
